Generator
---------
Input shape:  (74,)
----------------------------------------------------------------
        Layer (type)               Output Shape         Param #
================================================================
            Linear-1                  [-1, 256]          19,200
      LayerReshape-2            [-1, 1, 16, 16]               0
            Conv2d-3             [-1, 64, 8, 8]           1,664
       BatchNorm2d-4             [-1, 64, 8, 8]             128
         LeakyReLU-5             [-1, 64, 8, 8]               0
            Conv2d-6            [-1, 128, 4, 4]         204,928
       BatchNorm2d-7            [-1, 128, 4, 4]             256
         LeakyReLU-8            [-1, 128, 4, 4]               0
            Conv2d-9            [-1, 256, 4, 4]         295,168
      BatchNorm2d-10            [-1, 256, 4, 4]             512
        LeakyReLU-11            [-1, 256, 4, 4]               0
  ConvTranspose2d-12            [-1, 128, 8, 8]         524,416
      BatchNorm2d-13            [-1, 128, 8, 8]             256
        LeakyReLU-14            [-1, 128, 8, 8]               0
  ConvTranspose2d-15           [-1, 64, 16, 16]         131,136
      BatchNorm2d-16           [-1, 64, 16, 16]             128
        LeakyReLU-17           [-1, 64, 16, 16]               0
  ConvTranspose2d-18           [-1, 32, 32, 32]          32,800
      BatchNorm2d-19           [-1, 32, 32, 32]              64
        LeakyReLU-20           [-1, 32, 32, 32]               0
  ConvTranspose2d-21            [-1, 1, 32, 32]             289
          Sigmoid-22            [-1, 1, 32, 32]               0
      MyGenerator-23            [-1, 1, 32, 32]               0
================================================================
Total params: 1,210,945
Trainable params: 1,210,945
Non-trainable params: 0
----------------------------------------------------------------
Input size (MB): 0.00
Forward/backward pass size (MB): 1.57
Params size (MB): 4.62
Estimated Total Size (MB): 6.19
----------------------------------------------------------------



Adversariat
-----------
Input shape:  (11, 32, 32)
----------------------------------------------------------------
        Layer (type)               Output Shape         Param #
================================================================
            Conv2d-1           [-1, 32, 16, 16]           8,832
         LeakyReLU-2           [-1, 32, 16, 16]               0
            Conv2d-3             [-1, 64, 8, 8]          51,264
       BatchNorm2d-4             [-1, 64, 8, 8]             128
         LeakyReLU-5             [-1, 64, 8, 8]               0
            Conv2d-6            [-1, 128, 4, 4]         204,928
       BatchNorm2d-7            [-1, 128, 4, 4]             256
         LeakyReLU-8            [-1, 128, 4, 4]               0
            Conv2d-9            [-1, 256, 4, 4]         295,168
      BatchNorm2d-10            [-1, 256, 4, 4]             512
        LeakyReLU-11            [-1, 256, 4, 4]               0
  ConvTranspose2d-12            [-1, 128, 8, 8]         524,416
      BatchNorm2d-13            [-1, 128, 8, 8]             256
        LeakyReLU-14            [-1, 128, 8, 8]               0
  ConvTranspose2d-15           [-1, 64, 16, 16]         131,136
      BatchNorm2d-16           [-1, 64, 16, 16]             128
        LeakyReLU-17           [-1, 64, 16, 16]               0
  ConvTranspose2d-18           [-1, 32, 32, 32]          32,800
      BatchNorm2d-19           [-1, 32, 32, 32]              64
        LeakyReLU-20           [-1, 32, 32, 32]               0
  ConvTranspose2d-21            [-1, 1, 32, 32]             289
          Sigmoid-22            [-1, 1, 32, 32]               0
    MyAutoEncoder-23            [-1, 1, 32, 32]               0
================================================================
Total params: 1,250,177
Trainable params: 1,250,177
Non-trainable params: 0
----------------------------------------------------------------
Input size (MB): 0.04
Forward/backward pass size (MB): 1.70
Params size (MB): 4.77
Estimated Total Size (MB): 6.51
----------------------------------------------------------------



Hyperparameters
…
